pytorch_tutorial/mnist.pt (torch, 416796 bytes, 4 tensors)

weight f4 [128, 784]
0.009607435 -0.009315098 -0.03133928 -0.032154825 -0.024217173 0.01860571 0.0017316069 0.016195182
0.007924429 -0.035158206 -0.019144874 -0.03208713 -0.029397879 0.009821158 -0.012383261 0.01918693
-0.014617479 -0.042826634 -0.014926646 -0.047853377 -0.039900083 -0.045429412 -0.029201522 -0.009202363
-0.02931156 -0.04054566 0.0013909476 -0.024946712 -0.00918752 -0.03131803 -0.041279357 0.00065074314
0.016319329 -0.022542927 0.0017534314 0.029398412 -0.004107859 -0.045088563 0.020402651 -0.028015649
0.014450904 -0.0014259297 -0.020679895 0.0018813183 0.008978267 -0.013465742 -0.0029142266 0.016196622
0.016492674 -0.0072148787 0.010955809 -0.043437872 -0.049246173 -0.009542938 -0.030543424 -0.016337212
-0.035445493 -0.017335702 -0.009078622 -0.009706091 0.009776491 -0.02571395 0.019600337 -0.025172032
0.013107616 0.030882487 -0.00042656885 0.009531543 0.016721195 0.043249182 0.023634406 0.05898067
0.031371534 0.049292523 0.01666882 0.007707951 0.023457134 -0.021020262 0.01883374 -0.02789063
-0.0059516807 0.017953143 -0.045363467 0.0051967446 -0.007961699 0.020281047 -0.013694657 0.019812852
-0.009847946 0.0029551403 -0.006705759 0.02760887 0.06664192 0.043058768 0.09920161 0.08023526
0.1039922 0.10805328 0.11461553 0.08743293 0.08293015 0.07385986 0.105246015 0.049291406
0.07153393 0.028705593 0.012006468 0.027500164 0.004801877 -0.04065331 -0.021819787 -0.021407109
0.0066466276 -0.04413889 -0.01878905 8.0872465e-05 -0.0359873 0.014543783 -0.03629268 0.0028742957
0.063058846 0.10798333 0.06793165 0.13762562 0.09475002 0.075886875 0.09386879 0.08596609
0.117664665 0.13784568 0.08517225 0.057462145 0.020498797 0.024627324 -5.736248e-05 -0.013370821
-0.07044613 -0.015018745 -0.003916654 -0.0034859346 -0.033126634 -0.04426563 0.0076124 -0.003000652
-0.018788999 -0.0037690797 0.0083859265 -0.0054775667 0.030613644 0.0180615 0.05092179 0.060867935
0.0401986 -0.0046853092 0.031694986 0.08670903 0.1402121 0.17526613 0.14801653 0.1428753
0.07105335 0.06972383 -0.031724714 -0.068297155 -0.045043893 -0.014523039 0.0032179698 -0.04079324
-0.031580467 0.016358411 -0.0054103383 -0.014885332 -0.0060019013 -0.0049305568 -0.015271907 0.013442993
0.06158985 -0.0062710736 0.02799347 0.06058201 0.0131451385 0.025192006 0.07182954 0.11899791
0.18652779 0.102230854 0.08845619 0.030760938 0.021061929 0.020590859 -0.020892764 -0.03614377
-0.04679677 0.0027776335 0.0040394184 -0.018426033 0.017395033 -0.044427127 -0.02906367 -0.035802186
0.010470643 0.00977111 -0.014924152 0.018997142 0.0826555 0.04210317 0.078154705 0.0917729
0.049474407 0.054966144 0.0992209 0.16878894 0.085746095 -0.05310328 -0.006481028 -0.050396904
-0.08845928 -0.093892686 -0.09847471 -0.09449877 -0.06873502 -0.057231955 -0.05579301 -0.036975376
-0.023811217 -0.0018229898 -0.047951657 -0.011170531 0.0031098702 -0.0014163698 0.046471223 0.048452485
0.05509483 0.10874872 0.14335175 0.052616525 0.027939525 0.07542916 -0.0039896574 -0.12149399
-0.06255825 -0.1044946 -0.12091539 -0.12035245 -0.12729166 -0.16565986 -0.14878866 -0.11806218
-0.031319086 0.0049809185 -0.02102615 -0.00681292 -0.016043123 0.016555395 -0.02542 -0.004667323
00000000: 8168 1d3c 5a9e 18bc 9e5d 00bd c7b4 03bd
00000010: 1863 c6bc 006b 983c 16f7 e23a c2ab 843c
00000020: 77d5 013c 0d02 10bd b6d5 9cbc cb6d 03bd
00000030: d2d3 f0bc ece8 203c 29e3 4abc e92d 9d3c
00000040: 277e 6fbc fb6a 2fbd e48e 74bc e701 44bd
00000050: 456e 23bd 3114 3abd 0838 efbc 82c5 16bc
00000060: cc1e f0bc 3513 26bd 7550 b63a 0c5d ccbc
00000070: 4087 16bc 5647 00bd 8b14 29bd a296 2a3a
00000080: 1db0 853c f2ab b8bc 65d3 e53a f0d4 f03c
00000090: 389b 86bb c9ae 38bd 7623 a73c 1381 e5bc
000000a0: 7cc3 6c3c 43e6 baba e268 a9bc 9196 f63a
000000b0: 9519 133c 6a9f 5cbc 9cfc 3ebb c7ae 843c
000000c0: a51b 873c ca6a ecbb fe7f 333c e9eb 31bd
000000d0: 5bb6 49bd fc59 1cbc 3436 fabc 9ed5 85bc
000000e0: 4b2f 11bd 9a03 8ebc 80be 14bc 4c06 1fbc
000000f0: 932d 203c 10a6 d2bc e390 a03c 9435 cebc
00000100: 54c1 563c 45fd fc3c 1aa5 dfb9 302a 1c3c
00000110: e3fa 883c 0e26 313d f19c c13c b795 713d
00000120: 707f 003d f5e6 493d 0d8d 883c fb92 fc3b
00000130: 2d29 c03c af32 acbc 3749 9a3c e47a e4bc
00000140: 5106 c3bb 7812 933c 0bcf 39bd 7449 aa3b
00000150: c971 02bc 7024 a63c 8e5f 60bc 904e a23c
00000160: 4859 21bc 07ab 413b fcbb dbbb ff2b e23c
00000170: 8f7b 883d 645e 303d 372a cb3d 6252 a43d
00000180: ddf9 d43d 0a4b dd3d 8cbb ea3d 0910 b33d
00000190: 48d7 a93d d743 973d 398b d73d c9e5 493d
000001a0: 6280 923d fe27 eb3c c7b6 443c 0648 e13c
000001b0: 1059 9d3b 1684 26bd 69bf b2bc f65d afbc
000001c0: f4cb d93b fbca 34bd 7eeb 99bc 139a a938
000001d0: 6b67 13bd 0c49 6e3c a2a7 14bd ae5e 3c3b
000001e0: ff24 813d 5d26 dd3d c01f 8b3d bbed 0c3e
000001f0: 4c0c c23d 946a 9b3d 483e c03d fd0e b03d
00000200: 2cfa f03d 6b27 0d3e ca6e ae3d 6d5d 6b3d
00000210: 18ed a73c 3ebf c93c 7e98 70b8 4a11 5bbc
00000220: 1046 90bd 2f11 76bc 4657 80bb 4774 64bb
00000230: cbaf 07bd e14f 35bd 7171 f93b 96a6 44bb
00000240: 63eb 99bc aa02 77bb 2065 093c 297d b3bb
00000250: 77c9 fa3c b6f5 933c 5e93 503d a850 793d
00000260: 4aa7 243d 3987 99bb 9ad2 013d 8194 b13d
00000270: c393 0f3e f778 333e a591 173e e74d 123e
00000280: 6b84 913d 5ecb 8e3d c6f1 01bd 61df 8bbd
00000290: f27f 38bd 0af2 6dbc 93e4 523b d016 27bd
000002a0: 855a 01bd 1302 863c 3549 b1bb 9ce1 73bc
000002b0: 99ab c4bb 8290 a1bb 0537 7abc 0040 5c3c
000002c0: a345 7c3d 947d cdbb 9052 e53c d724 783d
000002d0: b55e 573c 775f ce3c 5e1b 933d 2db5 f33d
000002e0: 2401 3f3e 695e d13d 8528 b53d 5dfe fb3c
000002f0: 118a ac3c 29ae a83c 4d27 abbc 7d0b 14bd
00000300: f8ad 3fbd f508 363b 195d 843b 31f2 96bc
00000310: 0780 8e3c 38f9 35bd ef16 eebc 50a5 12bd
00000320: 0f8d 2b3c 0117 203c 6e84 74bc e59f 9b3c
00000330: 4947 a93d 6074 2c3d 930f a03d 6ef3 bb3d
00000340: ada5 4a3d 2e24 613d 5434 cb3d 02d7 2c3e
00000350: a69b af3d d382 59bd ce5e d4bb fc6c 4ebd
00000360: 242a b5bd cf4a c0bd 1cad c9bd 9288 c1bd
00000370: f2c4 8cbd 0e6c 6abd 3687 64bd 7e73 17bd
00000380: be0f c3bc 63f1 eeba f568 44bd 9a04 37bc
00000390: f7ce 4b3b 7ca5 b9ba 9c58 3e3d 1d76 463d
000003a0: 1eab 613d a6b7 de3d cdca 123e 6d84 573d
000003b0: 6ee1 e43c 9a7a 9a3d acbb 82bb d7d1 f8bd
000003c0: 8a1e 80bd 4401 d6bd 7da2 f7bd 587b f6bd
000003d0: bf58 02be bda2 29be 0e5c 18be 96ca f1bd
000003e0: 7148 00bd f936 a33b 083f acbc ea3e dfbb
000003f0: de6c 83bc 2e9f 873c 9b3d d0bc 58f0 98bb

bias f4 [128]
0.042148888 0.001984177 -0.03217771 -0.022978123 0.020744603 0.009946632 -0.041312344 -0.006686362
0.011998633 -0.014931995 0.0071405303 0.025702419 0.009816343 -0.015146201 -0.037015397 0.0087675955
0.013233008 -0.0038623856 0.010359663 -0.013692267 0.02578422 0.027798723 -0.011139259 -0.0044270176
-0.027344074 0.025533177 0.025695458 -0.005794378 -0.019691696 -0.0073207025 -0.050353713 -0.0074395863
-0.028602554 -0.046530638 0.0142135015 -0.010489169 0.006129302 -0.011369313 0.016055053 0.027582245
-0.04112715 0.013590978 -0.022998385 -0.041323666 -0.03631063 -0.019632768 -0.007857861 0.02553496
0.00046139664 0.019255737 0.017597556 0.035306532 -0.038235657 -0.016203202 -0.007298748 -0.017860409
-0.011461766 0.012980974 -0.021493364 -0.038170937 -0.015477192 0.004348087 0.0069875154 -0.012441794
-0.010876446 -0.0019256694 0.011872669 0.011758148 -0.011168977 0.017662086 -0.022496862 -0.041624032
-0.02018161 0.0035121834 -0.008814359 0.018782621 -0.00056253275 -0.00067857536 0.0027335014 0.01259471
-0.03057346 -0.024783768 -0.0057315254 -0.02303921 -0.018572986 -0.004404563 -0.039384726 -0.005403988
-0.03136675 -0.01233987 -0.040651996 -0.006582362 8.746213e-05 0.007275125 0.0012728538 -0.034858342
0.0068035666 -0.016995376 -0.0017414972 0.0014401507 0.011133194 -0.009053502 0.013352581 -0.02195219
0.00061884616 0.00091467815 -0.033841595 0.01606128 -0.009881848 -0.019907717 -0.00074879755 0.019069241
-0.031779043 0.01583938 -0.021366121 0.015260892 -0.013170098 -0.015878223 -0.011848403 -0.034743376
-0.00865383 0.00517851 0.008697513 0.00059595186 -0.036229398 -0.012312965 -0.0025464653 0.029492611
00000000: 50a4 2c3d f708 023b c6cc 03bd 9e3c bcbc
00000010: 96f0 a93c 33f7 223c 2237 29bd 4519 dbbb
00000020: ea95 443c 54a5 74bc 1cfb e93b e18d d23c
00000030: bad4 203c c527 78bc 759d 17bd f6a5 0f3c
00000040: 42cf 583c 1420 7dbb 93bb 293c 8855 60bc
00000050: 6e39 d33c 26ba e33c 7081 36bc 8410 91bb
00000060: ae00 e0bc f42a d13c 487f d23c c4de bdbb
00000070: 7b50 a1bc 81e2 efbb b23f 4ebd c6c7 f3bb
00000080: e74f eabc e996 3ebd bfdf 683c c3da 2bbc
00000090: 50d8 c83b 5b46 3abc e385 833c 29f4 e13c
000000a0: f174 28bd b2ac 5e3c 1c67 bcbc 0143 29bd
000000b0: 75ba 14bd e6d4 a0bc 42be 00bc b12e d13c
000000c0: 9ce7 f139 35be 9d3c c028 903c 959d 103d
000000d0: fe9c 1cbd 94bc 84bc 562a efbb fe4f 92bc
000000e0: 22ca 3bbc 27ae 543c da12 b0bc 2159 1cbd
000000f0: 0c94 7dbc 667a 8e3b 87f7 e43b abd8 4bbc
00000100: 1f33 32bc be66 fcba 9585 423c 3fa5 403c
00000110: 16fe 36bc 14b0 903c 574b b8bc f67d 2abd
00000120: e753 a5bc a92c 663b 1a6a 10bc 03de 993c
00000130: ef76 13ba 6ce2 31ba 8b24 333b 0b5a 4e3c
00000140: 3175 fabc 5407 cbbc 85cf bbbb babc bcbc
00000150: 6026 98bc 2754 90bb e151 21bd f013 b1bb
00000160: 6c7a 00bd 2b2d 4abc b582 26bd dbb0 d7bb
00000170: e06b b738 2c64 ee3b e3d5 a63a 9fc7 0ebd
00000180: 74f0 de3b e339 8bbc f342 e4ba 70c3 bc3a
00000190: 0068 363c 2455 14bc c9c4 5a3c 14d5 b3bc
000001a0: 103a 223a 03c7 6f3a 7c9d 0abd f292 833c
000001b0: 79e7 21bc 8215 a3bc f44a 44ba 1937 9c3c
000001c0: be2a 02bd 96c1 813c 0108 afbc d208 7a3c
000001d0: 65c7 57bc 0c13 82bc ce1f 42bc 124f 0ebd
000001e0: cbc8 0dbc 7eb0 a93b 0380 0e3c a739 1c3a
000001f0: 4765 14bd 51bc 49bc 99e2 26bb 7d9a f13c

weight f4 [10, 128]
0.076797366 0.058494095 -0.4648814 0.09057394 -0.41870818 -0.4310896 0.035397552 0.07668433
-0.080559954 0.02414649 0.029997388 -0.27732113 0.14348105 -0.04844014 0.017641436 0.12065781
0.14843382 0.019883703 0.0023543488 -0.23394214 -0.033340476 -0.089016154 -0.082680926 -0.23107247
-0.03687803 0.12908445 0.016336337 -0.22502631 0.053581197 -0.28529853 0.119071215 -0.017486544
0.14801554 -0.19383195 -0.037232734 0.18013999 0.059966616 0.07157217 0.03052623 0.11888001
0.13851424 0.013131281 0.13322563 -0.48092246 -0.01492575 0.031914078 0.08101746 0.18123858
0.079019345 -0.033182908 -0.017927112 0.051836453 -0.02642372 0.0049635773 -0.13749047 -0.13341455
-0.18011284 -0.030404387 -0.37502733 -0.19885306 -0.05392265 -0.084744014 -0.06626486 -0.075478226
-0.0058058244 0.03044944 0.07808834 -0.24317835 0.095354706 0.13519788 -0.16468205 -0.3842253
0.073585846 -0.016607473 -0.07286901 0.071894124 0.038709376 -0.036187045 0.048635893 0.063767835
0.01209018 -0.38659078 0.008282972 -0.0216336 0.027439881 -0.16445318 -0.12985034 -0.066177934
0.03508077 0.001377299 0.15043539 0.10316787 -0.12971109 -0.09768893 -0.21617301 -0.15455139
0.11080169 0.10018557 -0.07017112 -0.06716995 -0.2208548 -0.31608474 0.22011499 -0.022107339
-0.3127291 -0.07137624 0.06466009 0.050380047 -0.11714873 0.15001659 0.0052689128 -0.009002311
0.031031277 -0.3022445 -0.036733277 0.11309328 0.17437142 -0.24035427 0.11448389 -0.020372102
-0.084896564 -0.011092612 0.12182765 -0.3683211 -0.024554161 -0.010980598 0.06669001 0.005433428
-0.0019060432 0.12792854 0.08852791 -0.42601994 0.12690026 0.05948437 -0.017183077 0.062147815
0.049364503 -0.29759547 0.1324788 -0.12206782 -0.20990027 0.011987484 0.03864788 0.016251191
0.114678726 -0.0133780725 0.078533135 0.12217678 -0.048214644 0.077025235 -0.29319674 0.1024343
0.068893045 -0.20162372 0.008374145 0.07463683 0.029021092 0.044411402 0.09703854 0.050783206
-0.032845672 0.002769864 0.035579607 -0.18027988 0.075287335 -0.014885285 -0.09340898 0.06614034
-0.10776948 0.035709586 0.16341794 0.13425231 -0.016338008 -0.04451325 -0.02317979 -0.0115739005
0.08644595 -0.04849762 -0.022069197 -0.15064587 0.0136752 -0.007977512 0.124817334 -0.26626286
0.04868996 0.03625733 0.16795112 0.19852223 0.10468543 0.03145524 0.0221206 -0.07744658
-0.07277396 -0.07138287 -0.03869716 -0.34178382 -0.038498696 -0.08689814 -0.033421606 0.05980687
-0.007141645 0.08010683 -0.025200007 -0.028095542 -0.2624223 -0.06939079 -0.072766304 -0.14186715
-0.07186709 0.04691429 -0.063731045 0.059150994 0.23539038 0.15150315 0.14719138 0.08553788
-0.14613318 0.07685305 -0.22644466 0.321826 -0.12769596 -0.058064573 0.12548658 0.023173578
-0.081687085 -0.27699628 -0.03954929 0.0805359 -0.20430072 0.119281106 0.110079154 -0.3254282
0.049795397 -0.0026585339 -0.06663065 -0.025599996 0.070824966 -0.09955835 -0.084356606 0.03903877
0.04384252 0.09416376 -0.2558183 -0.22069852 0.02221337 -0.06908747 -0.3321779 -0.009623745
0.07956243 -0.067519575 -0.17542048 -0.16932887 -0.019757101 0.014124306 -0.0049639647 -0.026457148
00000000: f047 9d3d 8197 6f3d ef04 eebe d47e b93d
00000010: eb60 d6be c7b7 dcbe 06fd 103d ad0c 9d3d
00000020: 9efc a4bd dcce c53c 15bd f53c 09fd 8dbe
00000030: b2ec 123e 2b69 46bd c684 903c 711b f73d
00000040: 09ff 173e 26e3 a23c 6b4b 1a3b 878e 6fbe
00000050: 0690 08bd 1a4e b6bd 9e54 a9bd 439e 6cbe
00000060: 6b0d 17bd b72e 043e c8d3 853c 4c6d 66be
00000070: f577 5b3d a612 92be 9cdb f33d f13f 8fbc
00000080: 6391 173e e27b 46be 5a81 18bd 9e76 383e
00000090: 8e9f 753d 6e94 923d 2512 fa3c 5d77 f33d
000000a0: add6 0d3e 9624 573c 4d6c 083e 783b f6be
000000b0: 228b 74bc 56b8 023d 7bec a53d 9b96 393e
000000c0: e5d4 a13d cdea 07bd e1db 92bc 7652 543d
000000d0: 8f76 d8bc 81a5 a23b 4dca 0cbe d39d 08be
000000e0: 806f 38be 9f12 f9bc 9503 c0be 23a0 4bbe
000000f0: ffdd 5cbd 458e adbd dfb5 87bd 5494 9abd
00000100: c93e bebb 1b71 f93c c8ec 9f3d bf03 79be
00000110: 5449 c33d 5071 0a3e 69a2 28be 2eb9 c4be
00000120: 2db4 963d 650c 88bc 593c 95bd 3a3d 933d
00000130: b98d 1e3d de38 14bd 6e36 473d b698 823d
00000140: e415 463c 3aef c5be 4db5 073c f338 b1bc
00000150: 9ac9 e03c 6a66 28be 7df7 04be 4c88 87bd
00000160: dab0 0f3d 7c86 b43a bc0b 1a3e ad49 d33d
00000170: fcd2 04be 2211 c8bd 755c 5dbe b842 1ebe
00000180: ffeb e23d 182e cd3d e0b5 8fbd 6690 89bd
00000190: c327 62be dcd5 a1be d365 613e 731a b5bc
000001a0: 071e a0be b52d 92bd 826c 843d 4f5b 4e3d
000001b0: aceb efbd f39d 193e d8a6 ac3b 6e7e 13bc
000001c0: 4e35 fe3c cbbf 9abe a275 16bd 739d e73d
000001d0: 6c8e 323e 6e1f 76be 8876 ea3d 65e3 a6bc
000001e0: 40de adbd c9bd 35bc c680 f93d 9594 bcbe
000001f0: cf25 c9bc f7e7 33bc c694 883d e60a b23b
00000200: 32d4 f9ba b3ff 023e 1f4e b53d 491f dabe
00000210: 24f2 013e e2a5 733d 86c3 8cbc b58e 7e3d
00000220: 6f32 4a3d 6f5e 98be 86a8 073e b1fe f9bd
00000230: 19f0 56be 2767 443c 3d4d 1e3d 3821 853c
00000240: aedc ea3d b42f 5bbc fbd5 a03d d237 fa3d
00000250: b87c 45bd 68bf 9d3d e21d 96be 13c9 d13d
00000260: cc17 8d3d 7376 4ebe b633 093c 32db 983d
00000270: a4bd ed3c bbe8 353d 24bc c63d 0d02 503d
00000280: 2f89 06bd 9b86 353b ecbb 113d 4a9b 38be
00000290: 3f30 9a3d 69e1 73bc 354d bfbd 9674 873d
000002a0: 3fb6 dcbd 3744 123d 0857 273e 7079 093e
000002b0: 49d7 85bc 8753 36bd 8be3 bdbc 75a0 3dbc
000002c0: 930a b13d 71a5 46bd 76ca b4bc e942 1abe
000002d0: f20d 603c 1cb4 02bc 3ba0 ff3d 9b53 88be
000002e0: 206f 473d 9182 143d 61fb 2b3e 6949 4b3e
000002f0: 5165 d63d 36d7 003d 4336 b53c 509c 9ebd
00000300: 840a 95bd 2f31 92bd ea80 1ebd 4afe aebe
00000310: cfb0 1dbd a7f7 b1bd 18e5 08bd 0cf8 743d
00000320: 7604 eabb 0d0f a43d 3f70 cebc 9f28 e6bc
00000330: 375c 86be c21c 8ebd 8006 95bd 9f45 11be
00000340: 0e2f 93bd 3329 403d 6c85 82bd 5048 723d
00000350: 2d0a 713e a423 1b3e 56b9 163e 7c2e af3d
00000360: f0a3 15be 2265 9d3d 1ce1 67be 61c6 a43e
00000370: bbc2 02be 1ed5 6dbd 8e7f 003e 84d6 bd3c
00000380: 8f4b a7bd 75d2 8dbe 70fe 21bd 02f0 a43d
00000390: 3534 51be a749 f43d 2e71 e13d 869e a6be
000003a0: 42f6 4b3d cc3a 2ebb a675 88bd 15b7 d1bc
000003b0: ae0c 913d 40e5 cbbd 28c3 acbd 1ee7 1f3d
000003c0: 3794 333d eed8 c03d 9efa 82be cbfe 61be
000003d0: d0f8 b53c bb7d 8dbd 3913 aabe eaac 1dbc
000003e0: a1f1 a23d b447 8abd 6da1 33be 8c64 2dbe
000003f0: a5d9 a1bc a269 673c c1a8 a2bb a9bc d8bc

bias f4 [10]
-0.09378707 -0.014363341 -0.08530687 -0.016720917 0.0027488077 -0.11047935 0.0627727 -0.12204333
0.25068617 0.06251925
00000000: 6f13 c0bd 3854 6bbc 5eb5 aebd 4efa 88bc
00000010: 5725 343b ff42 e2bd f98e 803d daf1 f9bd
00000020: f059 803e 180a 803d
