pytorch_tutorial/saved_model.pt (torch, 409439 bytes, 4 tensors)

weight f4 [128, 784]
00000000: 373a 203d 7e7b d0bb b784 963b bdca 87bb
00000010: e3a6 8d3c 90a2 893c 2df3 92bc 766a 953c
00000020: b1b5 edbc 0f64 193c 4e3e f23c cad1 98bc
00000030: d1d5 ac3a 26c3 043d 4b11 193c bf54 733c
00000040: 9ffc 973c 4f4a 91bc 2145 dc3b 28f3 003d
00000050: 58e6 babc 602f d93c afc1 083d a08b 473b
00000060: 2012 113d 2d3f 0f3c 5754 093d 2330 7c3c
00000070: 8ea3 903b bf9d 173d 79e9 123c e23b a93c
00000080: b387 d9bc 6d77 8dbb 8b03 663c b6a7 bdbc
00000090: f855 c9bc 200a f53c efa3 3b3c 6d0c 32bc
000000a0: 1e10 043d d479 dabb 8a09 013d b1e7 15bc
000000b0: 6038 a23c 05ee ebbc 5893 abbc 08e6 f73c
000000c0: 054f 0e3c 5768 6c3c d89b a33c afc9 bf3a
000000d0: 7733 ddb9 e3cb 5b3c 711e 3bbc 193e b3bb
000000e0: e6ad b33c ebed 6f3c de84 42ba 0b94 f1bc
000000f0: 4f20 b9bc c6fd 7cbc 3b27 ebbc c599 20bc
00000100: 78d0 bc3b a8de b7bc 01f4 3d3a b7d9 a83b
00000110: cabc f93b b929 c0bc 1e2a 873c 172d 34bc
00000120: c238 b8ba 5904 2a3d c9f4 613c b830 263d
00000130: 01f0 c43c 9b20 613c 8e96 74bc 1d62 9cbc
00000140: b90e d43b 31a5 cc3a 578d 9d3c 41df af3a
00000150: 2556 1e3d 9fce 8ebc 5d86 7bbc b32e 4abc
00000160: 8f6c 5c3c 30ed d13c e31d 833c 8f8e c2bc
00000170: 50fd 6b3b 2f40 4dbc c936 0fbc 3d2a 103c
00000180: e257 78bc cbf5 fb3c 4e26 313c dadf e73c
00000190: b5b0 6cbc 3b24 46bb 3527 003d 9046 b8bc
000001a0: 60d6 e63c b33b d2bc 5611 033d 8de2 56bc
000001b0: f447 c73c d5f6 1e3d a919 73bc 52e5 c5bc
000001c0: 5de1 1c3d fa33 b53c e81f 123d 5732 993b
000001d0: e40e e2bc f163 263d 1856 92bc c4a0 033d
000001e0: fbe0 213c 03ba 90ba 53c1 773c b850 1e3d
000001f0: f2cd fd3c 7e6a b73c f8e6 7dbc 5d3c c93c
00000200: eac0 2a3d a272 033d c0b3 0d3d 565a c73b
00000210: e1b5 33bc b76c 223d 0a32 af3c 56a2 cfbc
00000220: c5a1 933c cba2 c7bc adf2 92bb 57a0 17bc
00000230: 2bc7 67bc b13d 5abc 16f8 c73c 3451 b73c
00000240: c0f4 4abb b647 9dbc d4df 9abc da41 95bc
00000250: 10ef b63a b41d 663c 18d7 b2bb 5d11 73bc
00000260: d8e1 043c 0f40 b13c 0762 36bb eccf 15bc
00000270: 002f c2bc 2c1d 233c eb7d 2a3b b5ad 1dbd
00000280: e0a6 efbc ae09 9cbb e11d 513b 17d8 1fbc
00000290: 1ac4 5b3c 5713 683c 22b0 803c 9edd f33c
000002a0: 4807 ed3c e04c 6f3b 6597 7bbb 17ad 243d
000002b0: ad8c b2bb 7e3e fe3c 517b 073c 09e0 d73c
000002c0: 2e6b 863c bf10 70bc d071 a53c d2bc 1e3d
000002d0: 7e3c 24bc 4abb 2d3c bbd8 babc c94b 0abb
000002e0: 0646 de3c e0b3 febc 0038 7c3c d9ae 253c
000002f0: f34a c83c a01e 09bc 0909 5d3c 6316 803c
00000300: 9e9f bbbc 73be 973c 872f 1d3c 8ae0 c9bb
00000310: 737a 273c dd7d 263d 0dbb b7bc 9608 d2bc
00000320: 3212 e43c 0520 0a3d 2bb7 413c 233f 6c3b
00000330: 8f4c b43b 2b49 583c 5b54 7dbc c46f b7bb
00000340: 3d2d ea3c b0e2 dbbc 894b c83b 795b 96bc
00000350: 4ba6 9a3c 0436 8dbc a317 0d3c 847a 9abc
00000360: 17e0 50bc d336 f4bc 1390 1fbd 2680 363c
00000370: d9b6 163c 96f8 47bc 9467 d3bc 6940 19bc
00000380: 496c fbbb 479b 763c 6d06 0d3d f658 debc
00000390: 923a 1ebc 1346 333c 821f ed3b b1a0 84bc
000003a0: bcfb 213d 783e 86bc 1a5e 393c be73 e53c
000003b0: 6740 fb3c 4b31 76bc a37d a7bb 23c6 c5bc
000003c0: c905 3bbc 62c6 0fbc ab22 29bc 8326 f93c
000003d0: 8210 21bc b1f3 ee3b f023 1a3c 19bf 223c
000003e0: 6422 243d 0495 003d 9781 d8bc 284b f23c
000003f0: 0121 d7bc c5b7 183d dfbb 143d 138a 213d
0.039118018 -0.0063623777 0.0045934576 -0.0041440413 0.017291492 0.016801149 -0.01793822 0.018239241
-0.029017301 0.009362235 0.029570725 -0.018654723 0.0013186281 0.03241267 0.009342502 0.014851748
0.018553076 -0.017735628 0.006722108 0.031481892 -0.022814915 0.026511848 0.033387836 0.0030448213
0.035417676 0.00874309 0.0335277 0.015392336 0.0044140285 0.037015673 0.008966797 0.020658437
-0.026553964 -0.004317215 0.014038931 -0.02315126 -0.024577126 0.029912055 0.011452659 -0.01086722
0.032241933 -0.006667355 0.031503238 -0.009149478 0.019802272 -0.02880002 -0.020944282 0.030261055
0.008685832 0.014429173 0.019971773 0.001463225 -0.0004219075 0.01341531 -0.011420832 -0.005470049
0.021933507 0.014644126 -0.00074203114 -0.029489538 -0.022598414 -0.015441364 -0.02870523 -0.0098022865
0.005762156 -0.022445038 0.0007246137 0.0051529068 0.0076213824 -0.023457395 0.016499575 -0.010997078
-0.0014055001 0.041508052 0.0137912715 0.040573806 0.024040224 0.013740684 -0.014928473 -0.019089753
0.0064714816 0.0015613196 0.019232435 0.0013417975 0.038656373 -0.017432509 -0.015351859 -0.0123402355
0.013453617 0.025625795 0.016005462 -0.023749618 0.003600914 -0.01252751 -0.008741089 0.008799133
-0.015157672 0.030756852 0.010812355 0.028304983 -0.014446427 -0.0030233997 0.03128739 -0.022494584
0.028178394 -0.025663232 0.031998955 -0.013115537 0.024326302 0.038809616 -0.014837661 -0.0241572
0.03830086 0.02211951 0.03567496 0.0046751904 -0.027594991 0.040622655 -0.017863318 0.03213574
0.0098803 -0.0011041764 0.015121776 0.0386512 0.030981991 0.022389647 -0.015496962 0.024564916
0.041687883 0.032091744 0.03459525 0.006083767 -0.010968656 0.03965446 0.021386165 -0.025345962
0.018021474 -0.024369618 -0.0044844956 -0.009254537 -0.014146606 -0.013320372 0.024410289 0.022377588
-0.0030968636 -0.019199234 -0.018905558 -0.018219877 0.0013956744 0.014045168 -0.00545777 -0.014835683
0.008110486 0.02163699 -0.0027829425 -0.009143811 -0.023704052 0.009955686 0.0026014994 -0.038495738
-0.029254377 -0.004761896 0.0031908678 -0.00975611 0.0134134535 0.014164767 0.015708987 0.029768761
0.028934136 0.0036514327 -0.0038389799 0.040204134 -0.0054488988 0.031035658 0.008269147 0.026351945
0.01640853 -0.01465243 0.020195872 0.03875429 -0.010024188 0.010603735 -0.022808423 -0.00211023
0.027133 -0.03109163 0.015394211 0.010112488 0.024449801 -0.008369118 0.013490924 0.015635675
-0.02290326 0.01852343 0.009593851 -0.0061608003 0.010222065 0.040647376 -0.02242806 -0.02563886
0.027840707 0.033721942 0.011823456 0.0036048375 0.0055022906 0.013201038 -0.015462006 -0.0055980403
0.028586024 -0.026841491 0.00611252 -0.018354164 0.018878123 -0.01723767 0.008611592 -0.018857248
-0.01274874 -0.029811298 -0.03895576 0.011138951 0.009198868 -0.012205264 -0.025806226 -0.0093537355
-0.0076728207 0.015051669 0.034429956 -0.02714203 -0.009657519 0.010942 0.007236422 -0.016189905
0.039546713 -0.01638721 0.0113139395 0.028009292 0.030670358 -0.015026401 -0.0051114126 -0.02414233
-0.0114149535 -0.0087753255 -0.010323207 0.030413872 -0.009830596 0.007292234 0.009407982 0.009933257
0.04007186 0.031392112 -0.02642898 0.029576853 -0.026260855 0.03728463 0.03631198 0.03943832

bias f4 [128]
00000000: e419 9d3c c8fe 0bbd 6947 32bd 2b26 4dbc
00000010: eab6 ba3c c350 5fbd d24a d2bc 336f ba3c
00000020: e084 7fbc f7d1 523c 49d6 18bd 5756 d539
00000030: 19ce 0e3d 66fd ebbb 7773 083c be21 dabb
00000040: aada e63c 763a ffbc d02d 34bd e61f 26bd
00000050: e5c7 1f3b 9044 b9bc 4159 823c cb71 0fbd
00000060: cbbb c1bc 481a 16bd 5d19 64bc a508 54bc
00000070: 65f9 253c 1317 4fbd 678f 15bd 03ec debc
00000080: 0308 0ebd b306 a6bc 0151 02bd f7d2 13bc
00000090: 58ab c13b ce81 c5bc a1dd fabc 9cbf 0abd
000000a0: ee83 07bd 658a 073a 053a 683c 5278 bd3b
000000b0: a4f3 cdbc 036b bbbc 8d18 0dbc 3f59 2cbd
000000c0: c861 da3b 38bc 963b 6c94 a53c d208 3ebd
000000d0: 86de 29bd e8a6 b6bc a6a9 87bc 8e8f 633c
000000e0: 9be9 07bd fc0b 37bc ea79 bdbc 4b61 10bd
000000f0: cae9 f6bc 16b7 02bc d90b a13a e886 a93b
00000100: cf13 94bc 552e c23c f80a 973b a060 b6bc
00000110: 5019 2e3d 8217 9b3c 39a8 d63c 37e1 343c
00000120: 0e66 413c 19cc efbc cfc5 27bc 0113 89bc
00000130: 2eb1 79bc c25e 933c f6ed baba e909 043d
00000140: 5c58 963a 83de da3c 31bc 35bc f462 87bb
00000150: ef68 2abd b63f 35bc 6ea2 5fbb e42f b7b9
00000160: 0e75 27bd 3244 4f3c 3b64 95bc b6d2 3bbd
00000170: 8e0d bebc f7ce 223c 579c c5bc 6122 9fbc
00000180: d755 af3c ee6b b73a 600a 0cbd f077 f6bb
00000190: 233c 31ba fbcc d9bb 7406 653b d8cb f93b
000001a0: 31a9 52bb 8054 91bb 6a57 833c 3d45 553c
000001b0: 9a09 eebc d8fe 1cbd 4be4 743c f24e 8fbc
000001c0: f930 ea3c 4b27 41bc 81cb 35bc d1fc 0dbc
000001d0: b0a6 11bd 96ec c43c 66dc 433c 892c fbba
000001e0: a7be 1c3d 4720 c2bc 89c2 613c 1969 3abd
000001f0: ed8a 00b9 ed34 e3bc a713 f13b 24e6 06bd
0.019177385 -0.034178525 -0.043525133 -0.012521307 0.022792298 -0.05452038 -0.025670443 0.022758102
-0.015595645 0.012867442 -0.037313733 0.00040690854 0.03486452 -0.0072018383 0.00832831 -0.0066568544
0.028180439 -0.031155806 -0.043989003 -0.040557764 0.002438062 -0.022615701 0.0159117 -0.03502063
-0.023649117 -0.036646158 -0.013922063 -0.012941514 0.010130261 -0.050559115 -0.036513712 -0.027212149
-0.03467561 -0.020266866 -0.031815533 -0.009022466 0.0059103183 -0.024109747 -0.030623259 -0.03387414
-0.033084802 0.00051704637 0.014173989 0.0057821656 -0.025140591 -0.022878176 -0.00861181 -0.0420773
0.0066644885 0.004600074 0.020212375 -0.04639513 -0.04147198 -0.022296384 -0.016560387 0.013889207
-0.033181768 -0.011172291 -0.023129422 -0.035249036 -0.030140776 -0.007978221 0.0012286856 0.005173553
-0.018075852 0.023703733 0.004609462 -0.022262871 0.04250461 0.018932108 0.026203262 0.0110400235
0.011804117 -0.029272126 -0.010240032 -0.016732695 -0.015239997 0.01798952 -0.0014261592 0.032236014
0.0011470425 0.02671743 -0.011092232 -0.004131669 -0.04160398 -0.011062553 -0.0034123915 -0.0003494016
-0.040883116 0.012650536 -0.01823627 -0.045855246 -0.023199823 0.00993704 -0.0241224 -0.019425573
0.021403236 0.0013993958 -0.034189582 -0.007521622 -0.0006760975 -0.00664675 0.0034946473 0.007623177
-0.0032144303 -0.004435122 0.016032893 0.013016996 -0.029057313 -0.038328975 0.014947007 -0.017493699
0.028587805 -0.011789153 -0.011095882 -0.008666233 -0.035559356 0.024038594 0.011954403 -0.0019163053
0.038267758 -0.023697032 0.013779291 -0.045510385 -0.00012258785 -0.027735198 0.007357079 -0.032934323

weight f4 [10, 128]
00000000: 70be 853d 6581 8b3c 749a 29be 0417 033e
00000010: 6435 193d b01d 2d3e 9976 9f3d 224e a93c
00000020: 96df b83d 489e c1bc d3b4 f3bc d1dc 5e3b
00000030: 2e71 f33d a3ed 0c3e b41d b0bd e0a4 32be
00000040: 01bf 73bd 58ee 0abe 6ca7 f0bc 969f 563e
00000050: f334 b03d a26d 89bd 0ddb da3d 6dc1 9a3c
00000060: 1cea 86bd b948 2c3d 31e1 e03d f524 cfbc
00000070: 5480 52bd 281f afbe ae37 9cbe f706 0a3d
00000080: 3488 e4bc 8e6b 203d 0dea 02bd 457d bf3d
00000090: 7f7c acba cbc1 3b3e 964d 12bd 9250 3b3e
000000a0: 4b04 e63d 952c 133c b156 b4be 1545 1b3e
000000b0: f40a 563d 41e9 d2be b4d7 1f3e 5a23 55bd
000000c0: 8dd0 0d3e 1153 923b c09f 153d de20 bfbb
000000d0: 490a 433d 3a05 8ebe b0eb 4e3d 18b5 da3c
000000e0: a1d0 55be b7d2 6cbe 789f b7bd f66b 5cbe
000000f0: 7a27 41bd 1397 233d 4a00 f1bc db1e 40be
00000100: 49dd edbd 447b 04bc 86e3 df3c d5ee 733c
00000110: 8b22 973d d670 463e d5f6 f4bd bee9 fbba
00000120: 58b7 adbe d297 ee3d 303b 71bd e301 67bc
00000130: d293 93bd de3b bbbe 3225 9fbb 87ae 87be
00000140: 6f10 d03d 1d5b 77bc 33cc a13d b0e3 8e3d
00000150: 4c32 5d3d daf1 983d 983a f7bd f089 803d
00000160: 9183 d03d 6bc4 c13c e52a 673d 252b 5d3e
00000170: 6128 7bbe 5003 96bc 5fd1 0c3e 137f 323d
00000180: 19b6 73bb a2b8 1abe 1509 4fbd d2b1 7bbd
00000190: e58f e7be 35f4 87be dbd1 973d 4bb5 9bbc
000001a0: 7d09 863d 748d a43d 7286 8fbd ed55 adbe
000001b0: 0532 ee3d 277d 243d 312a d1be 8e30 223e
000001c0: c8d0 063e 2d04 48bd 8c4a d7be c9aa 9d3d
000001d0: b122 1dbd 2302 763c 6c35 3c3e 7e8a db3c
000001e0: 61b0 04be 2683 8b3d fde7 83bc 6ddd b7be
000001f0: 87d9 08bd 5f6a 9bbc 852c 3a3d c6dc 7abd
00000200: 0496 12bd 69c0 c0bd c0e2 1c3e 9c92 49be
00000210: 0a7e 4dbe 337f 023e abe5 133d 307b e6bc
00000220: 8d2e 703c ede9 8b3d e5ed 9ebc 6078 1abd
00000230: 5bab 92be f11c 553e eb04 97bc 8f2a c4bd
00000240: d251 c4bd 4116 513e ebc8 663d c7dd 613d
00000250: ed62 9cbe b348 54bc f412 53be e617 473d
00000260: ec11 8dbd 5e55 debc 6101 97be 6210 74bd
00000270: 5a2a b53d 476f 643e e4fa e93d 8126 713d
00000280: 48cb 693d 2cc9 903d 8c9f 6c3d 5e7f 36be
00000290: 0943 8e3c 3616 513e d62b 6abd 3f16 1a3d
000002a0: 15fe 663e 6921 283e 0af6 22be 071c 41be
000002b0: 22c9 3cbd 4d96 91bb e47b 02be fd8b 903c
000002c0: 4acc 94be 2069 833d 9ae0 233d b2a8 f53d
000002d0: 17b6 873d d1da 1a3e 789a a23d db1f 55bd
000002e0: ab5e 7d3d 29c6 9a3d 4587 37be 27bb b73d
000002f0: be87 b73d f432 6fbe 6e2a 3d3d 3824 3c3e
00000300: 8ae0 3c3d 9193 513c e8db 63bd 4f06 fe3c
00000310: 0e71 01bd d6a6 9bbd 6ba5 9d3d a973 ab3c
00000320: b61e b43d cea4 37be fa16 c43d 7ab6 85bd
00000330: 8856 883d 628c 523d 936b a43c b17a 8bbe
00000340: 6230 7b3c b974 0ebe 2176 7abd 2d52 e1be
00000350: 6210 e73d 4990 6bbe 62c4 a03d 6d33 87bc
00000360: 897a d1bc b514 88bd e6f7 103d 0f76 423e
00000370: be5c 733d 23ba b2bd 3d48 183d 6e1d 043c
00000380: 5d44 0cbd 3457 e43d 2d96 a0bc c700 6b3d
00000390: 43c1 ca3d ab42 163e c857 37bd 48b7 e63a
000003a0: ddb2 113d 575d 07be 67b6 713d ec0b 993d
000003b0: bd17 fd3b f264 47bd bffc b43d 6ffc 943c
000003c0: 0dc8 2cbe c991 503d df4d a9bb ef27 38bd
000003d0: fb99 97bc 23ad e53c e7e2 0abe 3188 ed3c
000003e0: b399 5d3d 63e5 a4bd 2207 e93d 9a05 74be
000003f0: 944b 82bd 5dd1 a3bd 8358 9a3d 7371 44bd
0.06530464 0.017029474 -0.16562825 0.12801749 0.037404433 0.16905856 0.077862926 0.02066714
0.09027021 -0.023635045 -0.02974931 0.0034006129 0.11886822 0.13762526 -0.085994154 -0.17445707
-0.059508327 -0.13567483 -0.029376708 0.20959315 0.08603849 -0.06710364 0.10686312 0.01889106
-0.065876216 0.04206154 0.10980452 -0.025286177 -0.051391914 -0.34203458 -0.3051123 0.03369805
-0.027896978 0.039165072 -0.03196149 0.09350065 -0.0013159661 0.18335645 -0.035718523 0.18292454
0.112312876 0.008982797 -0.3522239 0.15163071 0.05225654 -0.41193584 0.15609628 -0.052035667
0.13849087 0.0044654687 0.036529303 -0.0058327755 0.04761723 -0.27738363 0.050517738 0.02669768
-0.20880367 -0.23127256 -0.08965963 -0.21525559 -0.04715679 0.039938997 -0.029419083 -0.1876177
-0.116144724 -0.008086029 0.027330171 0.014888485 0.073796354 0.19378981 -0.11961142 -0.0019219441
-0.33928943 0.11650051 -0.058894336 -0.014099571 -0.07205929 -0.36569113 -0.004856729 -0.2650034
0.101593845 -0.015097407 0.07900276 0.06977022 0.054003045 0.074680045 -0.12071723 0.062763095
0.10181344 0.02365323 0.05643739 0.2159849 -0.24527122 -0.018312126 0.13751744 0.04357822
-0.0037187396 -0.15109494 -0.05054577 -0.06144888 -0.4522697 -0.26553503 0.07413074 -0.019007346
0.065447785 0.080347925 -0.07008065 -0.3385462 0.11630634 0.040158417 -0.40852502 0.15838835
0.13165581 -0.048832107 -0.42049062 0.0769859 -0.038363162 0.015015158 0.18379754 0.026799437
-0.12957908 0.06812124 -0.016101832 -0.35911122 -0.033410575 -0.01897162 0.045452613 -0.061245702
-0.035787597 -0.09411699 0.15320873 -0.19684833 -0.20067611 0.12743835 0.0361077 -0.028134912
0.014659536 0.06831727 -0.019400546 -0.037712455 -0.2864636 0.20811822 -0.018434962 -0.0957843
-0.095859185 0.20418645 0.056343954 0.055143144 -0.30544224 -0.012956786 -0.20612699 0.048606776
-0.06888184 -0.027140316 -0.2949324 -0.059585936 0.088459685 0.22308074 0.11424807 0.05887461
0.05707863 0.070696205 0.057769343 -0.17822024 0.01736595 0.20418629 -0.05717071 0.03761887
0.22557862 0.16418995 -0.15914169 -0.18858348 -0.046090253 -0.004442966 -0.12742573 0.017644877
-0.2906211 0.064165354 0.04000912 0.11995067 0.06626528 0.15122534 0.07939619 -0.052032333
0.06185786 0.07557327 -0.17922695 0.08971243 0.08961438 -0.23359281 0.046183042 0.18373191
0.046112575 0.01279153 -0.05562964 0.031008868 -0.031601958 -0.07600181 0.076975666 0.020929174
0.0879492 -0.17933962 0.09574695 -0.06528945 0.066571295 0.05140341 0.020070827 -0.27242044
0.01533136 -0.13911714 -0.061147813 -0.44008008 0.11282422 -0.23004259 0.07849957 -0.016504014
-0.025571125 -0.066445746 0.035392664 0.18990348 0.059414618 -0.08726909 0.037178267 0.008063657
-0.034244884 0.11149445 -0.01960286 0.05737379 0.09900143 0.1467387 -0.04476145 0.001760223
0.035570968 -0.132192 0.059011843 0.07472977 0.007723777 -0.048680253 0.0883727 0.018186776
-0.16873188 0.05092028 -0.0051667537 -0.04495996 -0.01850604 0.02803666 -0.13563119 0.028995605
0.054101657 -0.080515645 0.113783136 -0.23830262 -0.06362072 -0.07998917 0.075364135 -0.047959756

bias f4 [10]
00000000: 56f4 aabc c329 9fbd 6755 09be 0053 b93d
00000010: 2088 a7ba 5e5c 453c 34d0 fc3d 61fb bdbd
00000020: 9a49 853e 4b6a 903d
-0.020868462 -0.07771637 -0.13411485 0.09049034 -0.0012781657 0.012045948 0.12344399 -0.09276462
0.26032716 0.07051524
